…
: 0, "fused_window_process": true, "fused_layernorm": false, "optim": null}
local rank 0 / global rank 0 successfully build train dataset
local rank 0 / global rank 0 successfully build val dataset
[32m[2023-01-05 04:19:08 swin_tutelmoe_base_patch4_window12_192_32expert_32gpu_22k][0m[33m(main_tutel_moe.py 94)[0m: INFO Creating model:swin_tutelmoe/swin_tutelmoe_base_patch4_window12_192_32expert_32gpu_22k
[32m[2023-01-05 04:19:24 swin_tutelmoe_base_patch4_window12_192_32expert_32gpu_22k][0m[33m(main_tutel_moe.py 96)[0m: INFO SwinTransformerTutelMoE(
  (patch_embed): PatchEmbed(
    (proj): Conv2d(3, 128, kernel_size=(4, 4), stride=(4, 4))
    (norm): LayerNorm((128,), eps=1e-05, elementwise_affine=True)
  )
  (pos_drop): Dropout(p=0.0, inplace=False)
  (layers): ModuleList(
    (0): BasicLayer(
      dim=128, input_resolution=(48, 48), depth=2
      (blocks): ModuleList(
        (0): SwinTransformerBlock(
          dim=128, input_resolution=(48, 48), num_heads=4, window_size=12, shift_size=0, mlp_ratio=4.0
          (norm1): TimerModule(
            (model): LayerNorm((128,), eps=1e-05, elementwise_affine=True)
          )
          (attn): WindowAttention(
            dim=128, window_size=(12, 12), pretrained_window_size=(0, 0), num_heads=4
            (cpb_mlp): Sequential(
              (0): Linear(in_features=2, out_features=512, bias=True)
              (1): ReLU(inplace=True)
              (2): Linear(in_features=512, out_features=4, bias=False)
            )
            (qkv): Linear(in_features=128, out_features=384, bias=True)
            (attn_drop): Dropout(p=0.0, inplace=False)
            (proj): Linear(in_features=128, out_features=128, bias=True)
            (proj_drop): Dropout(p=0.0, inplace=False)
            (softmax): Softmax(dim=-1)
          )
          (drop_path): Identity()
          (norm2): TimerModule(
            (model): LayerNorm((128,), eps=1e-05, elementwise_affine=True)
          )
          (mlp): Mlp(
            (fc1): Linear(in_features=128, out_features=512, bias=True)
            (act): GELU(approximate=none)
            (fc2): Linear(in_features=512, out_features=128, bias=False)
            (drop): Dropout(p=0.0, inplace=False)
          )
        )
        (1): SwinTransformerBlock(
          dim=128, input_resolution=(48, 48), num_heads=4, window_size=12, shift_size=6, mlp_ratio=4.0
          (norm1): TimerModule(
            (model): LayerNorm((128,), eps=1e-05, elementwise_affine=True)
          )
          (attn): WindowAttention(
            dim=128, window_size=(12, 12), pretrained_window_size=(0, 0), num_heads=4
            (cpb_mlp): Sequential(
              (0): Linear(in_features=2, out_features=512, bias=True)
              (1): ReLU(inplace=True)
              (2): Linear(in_features=512, out_features=4, bias=False)
            )
            (qkv): Linear(in_features=128, out_features=384, bias=True)
            (attn_drop): Dropout(p=0.0, inplace=False)
            (proj): Linear(in_features=128, out_features=128, bias=True)
            (proj_drop): Dropout(p=0.0, inplace=False)
            (softmax): Softmax(dim=-1)
          )
          (drop_path): DropPath()
          (norm2): TimerModule(
            (model): LayerNorm((128,), eps=1e-05, elementwise_affine=True)
          )
          (mlp): Mlp(
            (fc1): Linear(in_features=128, out_features=512, bias=True)
            (act): GELU(approximate=none)
            (fc2): Linear(in_features=512, out_features=128, bias=False)
            (drop): Dropout(p=0.0, inplace=False)
          )
        )
      )
      (downsample): PatchMerging(
        input_resolution=(48, 48), dim=128
        (reduction): Linear(in_features=512, out_features=256, bias=False)
        (norm): LayerNorm((512,), eps=1e-05, elementwise_affine=True)
      )
    )
    (1): BasicLayer(
      dim=256, input_resolution=(24, 24), depth=2
      (blocks): ModuleList(
        (0): SwinTransformerBlock(
          dim=256, input_resolution=(24, 24), num_heads=8, window_size=12, shift_size=0, mlp_ratio=4.0
          (norm1): TimerModule(
            (model): LayerNorm((256,), eps=1e-05, elementwise_affine=True)
          )
          (attn): WindowAttention(
            dim=256, window_size=(12, 12), pretrained_window_size=(0, 0), num_heads=8
            (cpb_mlp): Sequential(
              (0): Linear(in_features=2, out_features=512, bias=True)
              (1): ReLU(inplace=True)
              (2): Linear(in_features=512, out_features=8, bias=False)
            )
            (qkv): Linear(in_features=256, out_features=768, bias=True)
            (attn_drop): Dropout(p=0.0, inplace=False)
            (proj): Linear(in_features=256, out_features=256, bias=True)
            (proj_drop): Dropout(p=0.0, inplace=False)
            (softmax): Softmax(dim=-1)
          )
          (drop_path): DropPath()
          (norm2): TimerModule(
            (model): LayerNorm((256,), eps=1e-05, elementwise_affine=True)
          )
          (mlp): Mlp(
            (fc1): Linear(in_features=256, out_features=1024, bias=True)
            (act): GELU(approximate=none)
            (fc2): Linear(in_features=1024, out_features=256, bias=False)
            (drop): Dropout(p=0.0, inplace=False)
          )
        )
        (1): SwinTransformerBlock(
          dim=256, input_resolution=(24, 24), num_heads=8, window_size=12, shift_size=6, mlp_ratio=4.0
          (norm1): TimerModule(
            (model): LayerNorm((256,), eps=1e-05, elementwise_affine=True)
          )
          (attn): WindowAttention(
            dim=256, window_size=(12, 12), pretrained_window_size=(0, 0), num_heads=8
            (cpb_mlp): Sequential(
              (0): Linear(in_features=2, out_features=512, bias=True)
              (1): ReLU(inplace=True)
              (2): Linear(in_features=512, out_features=8, bias=False)
            )
            (qkv): Linear(in_features=256, out_features=768, bias=True)
            (attn_drop): Dropout(p=0.0, inplace=False)
            (proj): Linear(in_features=256, out_features=256, bias=True)
            (proj_drop): Dropout(p=0.0, inplace=False)
            (softmax): Softmax(dim=-1)
          )
          (drop_path): DropPath()
          (norm2): TimerModule(
            (model): LayerNorm((256,), eps=1e-05, elementwise_affine=True)
          )
          (mlp): Mlp(
            (fc1): Linear(in_features=256, out_features=1024, bias=True)
            (act): GELU(approximate=none)
            (fc2): Linear(in_features=1024, out_features=256, bias=False)
            (drop): Dropout(p=0.0, inplace=False)
          )
        )
      )
      (downsample): PatchMerging(
        input_resolution=(24, 24), dim=256
        (reduction): Linear(in_features=1024, out_features=512, bias=False)
        (norm): LayerNorm((1024,), eps=1e-05, elementwise_affine=True)
      )
    )
    (2): BasicLayer(
      dim=512, input_resolution=(12, 12), depth=18
      (blocks): ModuleList(
        (0): SwinTransformerBlock(
          dim=512, input_resolution=(12, 12), num_heads=16, window_size=12, shift_size=0, mlp_ratio=4.0
          (norm1): TimerModule(
            (model): LayerNorm((512,), eps=1e-05, elementwise_affine=True)
          )
          (attn): WindowAttention(
            dim=512, window_size=(12, 12), pretrained_window_size=(0, 0), num_heads=16
            (cpb_mlp): Sequential(
              (0): Linear(in_features=2, out_features=512, bias=True)
              (1): ReLU(inplace=True)
              (2): Linear(in_features=512, out_features=16, bias=False)
            )
            (qkv): Linear(in_features=512, out_features=1536, bias=True)
            (attn_drop): Dropout(p=0.0, inplace=False)
            (proj): Linear(in_features=512, out_features=512, bias=True)
            (proj_drop): Dropout(p=0.0, inplace=False)
            (softmax): Softmax(dim=-1)
          )
          (drop_path): DropPath()
          (norm2): TimerModule(
            (model): LayerNorm((512,), eps=1e-05, elementwise_affine=True)
          )
          (mlp): Mlp(
            (fc1): Linear(in_features=512, out_features=2048, bias=True)
            (act): GELU(approximate=none)
            (fc2): Linear(in_features=2048, out_features=512, bias=False)
            (drop): Dropout(p=0.0, inplace=False)
          )
        )
        (1): SwinTransformerBlock(
          dim=512, input_resolution=(12, 12), num_heads=16, window_size=12, shift_size=0, mlp_ratio=4.0
          (norm1): TimerModule(
            (model): LayerNorm((512,), eps=1e-05, elementwise_affine=True)
          )
          (attn): WindowAttention(
            dim=512, window_size=(12, 12), pretrained_window_size=(0, 0), num_heads=16
            (cpb_mlp): Sequential(
              (0): Linear(in_features=2, out_features=512, bias=True)
              (1): ReLU(inplace=True)
              (2): Linear(in_features=512, out_features=16, bias=False)
            )
            (qkv): Linear(in_features=512, out_features=1536, bias=True)
            (attn_drop): Dropout(p=0.0, inplace=False)
            (proj): Linear(in_features=512, out_features=512, bias=True)
            (proj_drop): Dropout(p=0.0, inplace=False)
            (softmax): Softmax(dim=-1)
          )
          (drop_path): DropPath()
          (norm2): TimerModule(
            (model): LayerNorm((512,), eps=1e-05, elementwise_affine=True)
          )
          (mlp): MoEMlp(
            [Statistics-0] param count for MoE, in_features = 512, hidden_features = 2048, num_local_experts = 1, top_value = 2, cosine_router=False normalize_gate=False, use_bpr = True
            (_dropout): Dropout(p=0.1, inplace=False)
            (_moe_layer): MOELayer(
              Top-K(s) = ['k=2, noise=1.0'], Total-Experts = 32 [managed by 32 device(s)],
              (experts): FusedExpertsNetwork(model_dim=512, hidden_size=2048, output_dim=512, local_experts=1)
              (gates): ModuleList(
                (0): LinearTopKGate(
                  (wg): Linear(in_features=512, out_features=32, bias=False)
                )
              )
            )
          )
        )
        (2): SwinTransformerBlock(
          dim=512, input_resolution=(12, 12), num_heads=16, window_size=12, shift_size=0, mlp_ratio=4.0
          (norm1): TimerModule(
            (model): LayerNorm((512,), eps=1e-05, elementwise_affine=True)
          )
          (attn): WindowAttention(
            dim=512, window_size=(12, 12), pretrained_window_size=(0, 0), num_heads=16
            (cpb_mlp): Sequential(
              (0): Linear(in_features=2, out_features=512, bias=True)
              (1): ReLU(inplace=True)
              (2): Linear(in_features=512, out_features=16, bias=False)
            )
            (qkv): Linear(in_features=512, out_features=1536, bias=True)
            (attn_drop): Dropout(p=0.0, inplace=False)
            (proj): Linear(in_features=512, out_features=512, bias=True)
            (proj_drop): Dropout(p=0.0, inplace=False)
            (softmax): Softmax(dim=-1)
          )
          (drop_path): DropPath()
          (norm2): TimerModule(
            (model): LayerNorm((512,), eps=1e-05, elementwise_affine=True)
          )
          (mlp): Mlp(
            (fc1): Linear(in_features=512, out_features=2048, bias=True)
            (act): GELU(approximate=none)
            (fc2): Linear(in_features=2048, out_features=512, bias=False)
            (drop): Dropout(p=0.0, inplace=False)
          )
        )
        (3): SwinTransformerBlock(
          dim=512, input_resolution=(12, 12), num_heads=16, window_size=12, shift_size=0, mlp_ratio=4.0
          (norm1): TimerModule(
            (model): LayerNorm((512,), eps=1e-05, elementwise_affine=True)
          )
          (attn): WindowAttention(
            dim=512, window_size=(12, 12), pretrained_window_size=(0, 0), num_heads=16
            (cpb_mlp): Sequential(
              (0): Linear(in_features=2, out_features=512, bias=True)
              (1): ReLU(inplace=True)
              (2): Linear(in_features=512, out_features=16, bias=False)
            )
            (qkv): Linear(in_features=512, out_features=1536, bias=True)
            (attn_drop): Dropout(p=0.0, inplace=False)
            (proj): Linear(in_features=512, out_features=512, bias=True)
            (proj_drop): Dropout(p=0.0, inplace=False)
            (softmax): Softmax(dim=-1)
          )
          (drop_path): DropPath()
          (norm2): TimerModule(
            (model): LayerNorm((512,), eps=1e-05, elementwise_affine=True)
          )
          (mlp): MoEMlp(
            [Statistics-0] param count for MoE, in_features = 512, hidden_features = 2048, num_local_experts = 1, top_value = 2, cosine_router=False normalize_gate=False, use_bpr = True
            (_dropout): Dropout(p=0.1, inplace=False)
            (_moe_layer): MOELayer(
              Top-K(s) = ['k=2, noise=1.0'], Total-Experts = 32 [managed by 32 device(s)],
              (experts): FusedExpertsNetwork(model_dim=512, hidden_size=2048, output_dim=512, local_experts=1)
              (gates): ModuleList(
                (0): LinearTopKGate(
                  (wg): Linear(in_features=512, out_features=32, bias=False)
                )
              )
            )
          )
        )
        (4): SwinTransformerBlock(
          dim=512, input_resolution=(12, 12), num_heads=16, window_size=12, shift_size=0, mlp_ratio=4.0
          (norm1): TimerModule(
            (model): LayerNorm((512,), eps=1e-05, elementwise_affine=True)
          )
          (attn): WindowAttention(
            dim=512, window_size=(12, 12), pretrained_window_size=(0, 0), num_heads=16
            (cpb_mlp): Sequential(
              (0): Linear(in_features=2, out_features=512, bias=True)
              (1): ReLU(inplace=True)
              (2): Linear(in_features=512, out_features=16, bias=False)
            )
            (qkv): Linear(in_features=512, out_features=1536, bias=True)
            (attn_drop): Dropout(p=0.0, inplace=False)
            (proj): Linear(in_features=512, out_features=512, bias=True)
            (proj_drop): Dropout(p=0.0, inplace=False)
            (softmax): Softmax(dim=-1)
          )
          (drop_path): DropPath()
          (norm2): TimerModule(
            (model): LayerNorm((512,), eps=1e-05, elementwise_affine=True)
          )
          (mlp): Mlp(
            (fc1): Linear(in_features=512, out_features=2048, bias=True)
            (act): GELU(approximate=none)
            (fc2): Linear(in_features=2048, out_features=512, bias=False)
            (drop): Dropout(p=0.0, inplace=False)
          )
        )
        (5): SwinTransformerBlock(
          dim=512, input_resolution=(12, 12), num_heads=16, window_size=12, shift_size=0, mlp_ratio=4.0
          (norm1): TimerModule(
            (model): LayerNorm((512,), eps=1e-05, elementwise_affine=True)
          )
          (attn): WindowAttention(
            dim=512, window_size=(12, 12), pretrained_window_size=(0, 0), num_heads=16
            (cpb_mlp): Sequential(
              (0): Linear(in_features=2, out_features=512, bias=True)
              (1): ReLU(inplace=True)
              (2): Linear(in_features=512, out_features=16, bias=False)
            )
            (qkv): Linear(in_features=512, out_features=1536, bias=True)
            (attn_drop): Dropout(p=0.0, inplace=False)
            (proj): Linear(in_features=512, out_features=512, bias=True)
            (proj_drop): Dropout(p=0.0, inplace=False)
            (softmax): Softmax(dim=-1)
          )
          (drop_path): DropPath()
          (norm2): TimerModule(
            (model): LayerNorm((512,), eps=1e-05, elementwise_affine=True)
          )
          (mlp): MoEMlp(
            [Statistics-0] param count for MoE, in_features = 512, hidden_features = 2048, num_local_experts = 1, top_value = 2, cosine_router=False normalize_gate=False, use_bpr = True
            (_dropout): Dropout(p=0.1, inplace=False)
            (_moe_layer): MOELayer(
              Top-K(s) = ['k=2, noise=1.0'], Total-Experts = 32 [managed by 32 device(s)],
              (experts): FusedExpertsNetwork(model_dim=512, hidden_size=2048, output_dim=512, local_experts=1)
              (gates): ModuleList(
                (0): LinearTopKGate(
                  (wg): Linear(in_features=512, out_features=32, bias=False)
                )
              )
            )
          )
        )
        (6): SwinTransformerBlock(
          dim=512, input_resolution=(12, 12), num_heads=16, window_size=12, shift_size=0, mlp_ratio=4.0
          (norm1): TimerModule(
            (model): LayerNorm((512,), eps=1e-05, elementwise_affine=True)
          )
          (attn): WindowAttention(
            dim=512, window_size=(12, 12), pretrained_window_size=(0, 0), num_heads=16
            (cpb_mlp): Sequential(
              (0): Linear(in_features=2, out_features=512, bias=True)
              (1): ReLU(inplace=True)
              (2): Linear(in_features=512, out_features=16, bias=False)
            )
            (qkv): Linear(in_features=512, out_features=1536, bias=True)
            (attn_drop): Dropout(p=0.0, inplace=False)
            (proj): Linear(in_features=512, out_features=512, bias=True)
            (proj_drop): Dropout(p=0.0, inplace=False)
            (softmax): Softmax(dim=-1)
          )
          (drop_path): DropPath()
          (norm2): TimerModule(
            (model): LayerNorm((512,), eps=1e-05, elementwise_affine=True)
          )
          (mlp): Mlp(
            (fc1): Linear(in_features=512, out_features=2048, bias=True)
            (act): GELU(approximate=none)
            (fc2): Linear(in_features=2048, out_features=512, bias=False)
            (drop): Dropout(p=0.0, inplace=False)
          )
        )
        (7): SwinTransformerBlock(
          dim=512, input_resolution=(12, 12), num_heads=16, window_size=12, shift_size=0, mlp_ratio=4.0
          (norm1): TimerModule(
            (model): LayerNorm((512,), eps=1e-05, elementwise_affine=True)
          )
          (attn): WindowAttention(
            dim=512, window_size=(12, 12), pretrained_window_size=(0, 0), num_heads=16
            (cpb_mlp): Sequential(
              (0): Linear(in_features=2, out_features=512, bias=True)
              (1): ReLU(inplace=True)
              (2): Linear(in_features=512, out_features=16, bias=False)
            )
            (qkv): Linear(in_features=512, out_features=1536, bias=True)
            (attn_drop): Dropout(p=0.0, inplace=False)
            (proj): Linear(in_features=512, out_features=512, bias=True)
            (proj_drop): Dropout(p=0.0, inplace=False)
            (softmax): Softmax(dim=-1)
          )
          (drop_path): DropPath()
          (norm2): TimerModule(
            (model): LayerNorm((512,), eps=1e-05, elementwise_affine=True)
          )
          (mlp): MoEMlp(
            [Statistics-0] param count for MoE, in_features = 512, hidden_features = 2048, num_local_experts = 1, top_value = 2, cosine_router=False normalize_gate=False, use_bpr = True
            (_dropout): Dropout(p=0.1, inplace=False)
            (_moe_layer): MOELayer(
              Top-K(s) = ['k=2, noise=1.0'], Total-Experts = 32 [managed by 32 device(s)],
              (experts): FusedExpertsNetwork(model_dim=512, hidden_size=2048, output_dim=512, local_experts=1)
              (gates): ModuleList(
                (0): LinearTopKGate(
                  (wg): Linear(in_features=512, out_features=32, bias=False)
                )
              )
            )
          )
        )
        (8): SwinTransformerBlock(
          dim=512, input_resolution=(12, 12), num_heads=16, window_size=12, shift_size=0, mlp_ratio=4.0
          (norm1): TimerModule(
            (model): LayerNorm((512,), eps=1e-05, elementwise_affine=True)
          )
          (attn): WindowAttention(
            dim=512, window_size=(12, 12), pretrained_window_size=(0, 0), num_heads=16
            (cpb_mlp): Sequential(
              (0): Linear(in_features=2, out_features=512, bias=True)
              (1): ReLU(inplace=True)
              (2): Linear(in_features=512, out_features=16, bias=False)
            )
            (qkv): Linear(in_features=512, out_features=1536, bias=True)
            (attn_drop): Dropout(p=0.0, inplace=False)
            (proj): Linear(in_features=512, out_features=512, bias=True)
            (proj_drop): Dropout(p=0.0, inplace=False)
            (softmax): Softmax(dim=-1)
          )
          (drop_path): DropPath()
          (norm2): TimerModule(
            (model): LayerNorm((512,), eps=1e-05, elementwise_affine=True)
          )
          (mlp): Mlp(
            (fc1): Linear(in_features=512, out_features=2048, bias=True)
            (act): GELU(approximate=none)
            (fc2): Linear(in_features=2048, out_features=512, bias=False)
            (drop): Dropout(p=0.0, inplace=False)
          )
        )
        (9): SwinTransformerBlock(
          dim=512, input_resolution=(12, 12), num_heads=16, window_size=12, shift_size=0, mlp_ratio=4.0
          (norm1): TimerModule(
            (model): LayerNorm((512,), eps=1e-05, elementwise_affine=True)
          )
          (attn): WindowAttention(
            dim=512, window_size=(12, 12), pretrained_window_size=(0, 0), num_heads=16
            (cpb_mlp): Sequential(
              (0): Linear(in_features=2, out_features=512, bias=True)
              (1): ReLU(inplace=True)
              (2): Linear(in_features=512, out_features=16, bias=False)
            )
            (qkv): Linear(in_features=512, out_features=1536, bias=True)
            (attn_drop): Dropout(p=0.0, inplace=False)
            (proj): Linear(in_features=512, out_features=512, bias=True)
            (proj_drop): Dropout(p=0.0, inplace=False)
            (softmax): Softmax(dim=-1)
          )
          (drop_path): DropPath()
          (norm2): TimerModule(
            (model): LayerNorm((512,), eps=1e-05, elementwise_affine=True)
          )
          (mlp): MoEMlp(
            [Statistics-0] param count for MoE, in_features = 512, hidden_features = 2048, num_local_experts = 1, top_value = 2, cosine_router=False normalize_gate=False, use_bpr = True
            (_dropout): Dropout(p=0.1, inplace=False)
            (_moe_layer): MOELayer(
              Top-K(s) = ['k=2, noise=1.0'], Total-Experts = 32 [managed by 32 device(s)],
              (experts): FusedExpertsNetwork(model_dim=512, hidden_size=2048, output_dim=512, local_experts=1)
              (gates): ModuleList(
                (0): LinearTopKGate(
                  (wg): Linear(in_features=512, out_features=32, bias=False)
                )
              )
            )
          )
        )
        (10): SwinTransformerBlock(
          dim=512, input_resolution=(12, 12), num_heads=16, window_size=12, shift_size=0, mlp_ratio=4.0
          (norm1): TimerModule(
            (model): LayerNorm((512,), eps=1e-05, elementwise_affine=True)
          )
          (attn): WindowAttention(
            dim=512, window_size=(12, 12), pretrained_window_size=(0, 0), num_heads=16
            (cpb_mlp): Sequential(
              (0): Linear(in_features=2, out_features=512, bias=True)
              (1): ReLU(inplace=True)
              (2): Linear(in_features=512, out_features=16, bias=False)
            )
            (qkv): Linear(in_features=512, out_features=1536, bias=True)
            (attn_drop): Dropout(p=0.0, inplace=False)
            (proj): Linear(in_features=512, out_features=512, bias=True)
            (proj_drop): Dropout(p=0.0, inplace=False)
            (softmax): Softmax(dim=-1)
          )
          (drop_path): DropPath()
          (norm2): TimerModule(
            (model): LayerNorm((512,), eps=1e-05, elementwise_affine=True)
          )
          (mlp): Mlp(
            (fc1): Linear(in_features=512, out_features=2048, bias=True)
            (act): GELU(approximate=none)
            (fc2): Linear(in_features=2048, out_features=512, bias=False)
            (drop): Dropout(p=0.0, inplace=False)
          )
        )
        (11): SwinTransformerBlock(
          dim=512, input_resolution=(12, 12), num_heads=16, window_size=12, shift_size=0, mlp_ratio=4.0
          (norm1): TimerModule(
            (model): LayerNorm((512,), eps=1e-05, elementwise_affine=True)
          )
          (attn): WindowAttention(
            dim=512, window_size=(12, 12), pretrained_window_size=(0, 0), num_heads=16
            (cpb_mlp): Sequential(
              (0): Linear(in_features=2, out_features=512, bias=True)
              (1): ReLU(inplace=True)
              (2): Linear(in_features=512, out_features=16, bias=False)
            )
            (qkv): Linear(in_features=512, out_features=1536, bias=True)
            (attn_drop): Dropout(p=0.0, inplace=False)
            (proj): Linear(in_features=512, out_features=512, bias=True)
            (proj_drop): Dropout(p=0.0, inplace=False)
            (softmax): Softmax(dim=-1)
          )
          (drop_path): DropPath()
          (norm2): TimerModule(
            (model): LayerNorm((512,), eps=1e-05, elementwise_affine=True)
          )
          (mlp): MoEMlp(
            [Statistics-0] param count for MoE, in_features = 512, hidden_features = 2048, num_local_experts = 1, top_value = 2, cosine_router=False normalize_gate=False, use_bpr = True
            (_dropout): Dropout(p=0.1, inplace=False)
            (_moe_layer): MOELayer(
              Top-K(s) = ['k=2, noise=1.0'], Total-Experts = 32 [managed by 32 device(s)],
              (experts): FusedExpertsNetwork(model_dim=512, hidden_size=2048, output_dim=512, local_experts=1)
              (gates): ModuleList(
                (0): LinearTopKGate(
                  (wg): Linear(in_features=512, out_features=32, bias=False)
                )
              )
            )
          )
        )
        (12): SwinTransformerBlock(
          dim=512, input_resolution=(12, 12), num_heads=16, window_size=12, shift_size=0, mlp_ratio=4.0
          (norm1): TimerModule(
            (model): LayerNorm((512,), eps=1e-05, elementwise_affine=True)
          )
          (attn): WindowAttention(
            dim=512, window_size=(12, 12), pretrained_window_size=(0, 0), num_heads=16
            (cpb_mlp): Sequential(
              (0): Linear(in_features=2, out_features=512, bias=True)
              (1): ReLU(inplace=True)
              (2): Linear(in_features=512, out_features=16, bias=False)
            )
            (qkv): Linear(in_features=512, out_features=1536, bias=True)
            (attn_drop): Dropout(p=0.0, inplace=False)
            (proj): Linear(in_features=512, out_features=512, bias=True)
            (proj_drop): Dropout(p=0.0, inplace=False)
            (softmax): Softmax(dim=-1)
          )
          (drop_path): DropPath()
          (norm2): TimerModule(
            (model): LayerNorm((512,), eps=1e-05, elementwise_affine=True)
          )
          (mlp): Mlp(
            (fc1): Linear(in_features=512, out_features=2048, bias=True)
            (act): GELU(approximate=none)
            (fc2): Linear(in_features=2048, out_features=512, bias=False)
            (drop): Dropout(p=0.0, inplace=False)
          )
        )
        (13): SwinTransformerBlock(
          dim=512, input_resolution=(12, 12), num_heads=16, window_size=12, shift_size=0, mlp_ratio=4.0
          (norm1): TimerModule(
            (model): LayerNorm((512,), eps=1e-05, elementwise_affine=True)
          )
          (attn): WindowAttention(
            dim=512, window_size=(12, 12), pretrained_window_size=(0, 0), num_heads=16
            (cpb_mlp): Sequential(
              (0): Linear(in_features=2, out_features=512, bias=True)
              (1): ReLU(inplace=True)
              (2): Linear(in_features=512, out_features=16, bias=False)
            )
            (qkv): Linear(in_features=512, out_features=1536, bias=True)
            (attn_drop): Dropout(p=0.0, inplace=False)
            (proj): Linear(in_features=512, out_features=512, bias=True)
            (proj_drop): Dropout(p=0.0, inplace=False)
            (softmax): Softmax(dim=-1)
          )
          (drop_path): DropPath()
          (norm2): TimerModule(
            (model): LayerNorm((512,), eps=1e-05, elementwise_affine=True)
          )
          (mlp): MoEMlp(
            [Statistics-0] param count for MoE, in_features = 512, hidden_features = 2048, num_local_experts = 1, top_value = 2, cosine_router=False normalize_gate=False, use_bpr = True
            (_dropout): Dropout(p=0.1, inplace=False)
            (_moe_layer): MOELayer(
              Top-K(s) = ['k=2, noise=1.0'], Total-Experts = 32 [managed by 32 device(s)],
              (experts): FusedExpertsNetwork(model_dim=512, hidden_size=2048, output_dim=512, local_experts=1)
              (gates): ModuleList(
                (0): LinearTopKGate(
                  (wg): Linear(in_features=512, out_features=32, bias=False)
                )
              )
            )
          )
        )
        (14): SwinTransformerBlock(
          dim=512, input_resolution=(12, 12), num_heads=16, window_size=12, shift_size=0, mlp_ratio=4.0
          (norm1): TimerModule(
            (model): LayerNorm((512,), eps=1e-05, elementwise_affine=True)
          )
          (attn): WindowAttention(
            dim=512, window_size=(12, 12), pretrained_window_size=(0, 0), num_heads=16
            (cpb_mlp): Sequential(
              (0): Linear(in_features=2, out_features=512, bias=True)
              (1): ReLU(inplace=True)
              (2): Linear(in_features=512, out_features=16, bias=False)
            )
            (qkv): Linear(in_features=512, out_features=1536, bias=True)
            (attn_drop): Dropout(p=0.0, inplace=False)
            (proj): Linear(in_features=512, out_features=512, bias=True)
            (proj_drop): Dropout(p=0.0, inplace=False)
            (softmax): Softmax(dim=-1)
          )
          (drop_path): DropPath()
          (norm2): TimerModule(
            (model): LayerNorm((512,), eps=1e-05, elementwise_affine=True)
          )
          (mlp): Mlp(
            (fc1): Linear(in_features=512, out_features=2048, bias=True)
            (act): GELU(approximate=none)
            (fc2): Linear(in_features=2048, out_features=512, bias=False)
            (drop): Dropout(p=0.0, inplace=False)
          )
        )
        (15): SwinTransformerBlock(
          dim=512, input_resolution=(12, 12), num_heads=16, window_size=12, shift_size=0, mlp_ratio=4.0
          (norm1): TimerModule(
            (model): LayerNorm((512,), eps=1e-05, elementwise_affine=True)
          )
          (attn): WindowAttention(
            dim=512, window_size=(12, 12), pretrained_window_size=(0, 0), num_heads=16
            (cpb_mlp): Sequential(
              (0): Linear(in_features=2, out_features=512, bias=True)
              (1): ReLU(inplace=True)
              (2): Linear(in_features=512, out_features=16, bias=False)
            )
            (qkv): Linear(in_features=512, out_features=1536, bias=True)
            (attn_drop): Dropout(p=0.0, inplace=False)
            (proj): Linear(in_features=512, out_features=512, bias=True)
            (proj_drop): Dropout(p=0.0, inplace=False)
            (softmax): Softmax(dim=-1)
          )
          (drop_path): DropPath()
          (norm2): TimerModule(
            (model): LayerNorm((512,), eps=1e-05, elementwise_affine=True)
          )
          (mlp): MoEMlp(
            [Statistics-0] param count for MoE, in_features = 512, hidden_features = 2048, num_local_experts = 1, top_value = 2, cosine_router=False normalize_gate=False, use_bpr = True
            (_dropout): Dropout(p=0.1, inplace=False)
            (_moe_layer): MOELayer(
              Top-K(s) = ['k=2, noise=1.0'], Total-Experts = 32 [managed by 32 device(s)],
              (experts): FusedExpertsNetwork(model_dim=512, hidden_size=2048, output_dim=512, local_experts=1)
              (gates): ModuleList(
                (0): LinearTopKGate(
                  (wg): Linear(in_features=512, out_features=32, bias=False)
                )
              )
            )
          )
        )
        (16): SwinTransformerBlock(
          dim=512, input_resolution=(12, 12), num_heads=16, window_size=12, shift_size=0, mlp_ratio=4.0
          (norm1): TimerModule(
            (model): LayerNorm((512,), eps=1e-05, elementwise_affine=True)
          )
          (attn): WindowAttention(
            dim=512, window_size=(12, 12), pretrained_window_size=(0, 0), num_heads=16
            (cpb_mlp): Sequential(
              (0): Linear(in_features=2, out_features=512, bias=True)
              (1): ReLU(inplace=True)
              (2): Linear(in_features=512, out_features=16, bias=False)
            )
            (qkv): Linear(in_features=512, out_features=1536, bias=True)
            (attn_drop): Dropout(p=0.0, inplace=False)
            (proj): Linear(in_features=512, out_features=512, bias=True)
            (proj_drop): Dropout(p=0.0, inplace=False)
            (softmax): Softmax(dim=-1)
          )
          (drop_path): DropPath()
          (norm2): TimerModule(
            (model): LayerNorm((512,), eps=1e-05, elementwise_affine=True)
          )
          (mlp): Mlp(
            (fc1): Linear(in_features=512, out_features=2048, bias=True)
            (act): GELU(approximate=none)
            (fc2): Linear(in_features=2048, out_features=512, bias=False)
            (drop): Dropout(p=0.0, inplace=False)
          )
        )
        (17): SwinTransformerBlock(
          dim=512, input_resolution=(12, 12), num_heads=16, window_size=12, shift_size=0, mlp_ratio=4.0
          (norm1): TimerModule(
            (model): LayerNorm((512,), eps=1e-05, elementwise_affine=True)
          )
          (attn): WindowAttention(
            dim=512, window_size=(12, 12), pretrained_window_size=(0, 0), num_heads=16
            (cpb_mlp): Sequential(
              (0): Linear(in_features=2, out_features=512, bias=True)
              (1): ReLU(inplace=True)
              (2): Linear(in_features=512, out_features=16, bias=False)
            )
            (qkv): Linear(in_features=512, out_features=1536, bias=True)
            (attn_drop): Dropout(p=0.0, inplace=False)
            (proj): Linear(in_features=512, out_features=512, bias=True)
            (proj_drop): Dropout(p=0.0, inplace=False)
            (softmax): Softmax(dim=-1)
          )
          (drop_path): DropPath()
          (norm2): TimerModule(
            (model): LayerNorm((512,), eps=1e-05, elementwise_affine=True)
          )
          (mlp): MoEMlp(
            [Statistics-0] param count for MoE, in_features = 512, hidden_features = 2048, num_local_experts = 1, top_value = 2, cosine_router=False normalize_gate=False, use_bpr = True
            (_dropout): Dropout(p=0.1, inplace=False)
            (_moe_layer): MOELayer(
              Top-K(s) = ['k=2, noise=1.0'], Total-Experts = 32 [managed by 32 device(s)],
              (experts): FusedExpertsNetwork(model_dim=512, hidden_size=2048, output_dim=512, local_experts=1)
              (gates): ModuleList(
                (0): LinearTopKGate(
                  (wg): Linear(in_features=512, out_features=32, bias=False)
                )
              )
            )
          )
        )
      )
      (downsample): PatchMerging(
        input_resolution=(12, 12), dim=512
        (reduction): Linear(in_features=2048, out_features=1024, bias=False)
        (norm): LayerNorm((2048,), eps=1e-05, elementwise_affine=True)
      )
    )
    (3): BasicLayer(
      dim=1024, input_resolution=(6, 6), depth=2
      (blocks): ModuleList(
        (0): SwinTransformerBlock(
          dim=1024, input_resolution=(6, 6), num_heads=32, window_size=6, shift_size=0, mlp_ratio=4.0
          (norm1): TimerModule(
            (model): LayerNorm((1024,), eps=1e-05, elementwise_affine=True)
          )
          (attn): WindowAttention(
            dim=1024, window_size=(6, 6), pretrained_window_size=(0, 0), num_heads=32
            (cpb_mlp): Sequential(
              (0): Linear(in_features=2, out_features=512, bias=True)
              (1): ReLU(inplace=True)
              (2): Linear(in_features=512, out_features=32, bias=False)
            )
            (qkv): Linear(in_features=1024, out_features=3072, bias=True)
            (attn_drop): Dropout(p=0.0, inplace=False)
            (proj): Linear(in_features=1024, out_features=1024, bias=True)
            (proj_drop): Dropout(p=0.0, inplace=False)
            (softmax): Softmax(dim=-1)
          )
          (drop_path): DropPath()
          (norm2): TimerModule(
            (model): LayerNorm((1024,), eps=1e-05, elementwise_affine=True)
          )
          (mlp): Mlp(
            (fc1): Linear(in_features=1024, out_features=4096, bias=True)
            (act): GELU(approximate=none)
            (fc2): Linear(in_features=4096, out_features=1024, bias=False)
            (drop): Dropout(p=0.0, inplace=False)
          )
        )
        (1): SwinTransformerBlock(
          dim=1024, input_resolution=(6, 6), num_heads=32, window_size=6, shift_size=0, mlp_ratio=4.0
          (norm1): TimerModule(
            (model): LayerNorm((1024,), eps=1e-05, elementwise_affine=True)
          )
          (attn): WindowAttention(
            dim=1024, window_size=(6, 6), pretrained_window_size=(0, 0), num_heads=32
            (cpb_mlp): Sequential(
              (0): Linear(in_features=2, out_features=512, bias=True)
              (1): ReLU(inplace=True)
              (2): Linear(in_features=512, out_features=32, bias=False)
            )
            (qkv): Linear(in_features=1024, out_features=3072, bias=True)
            (attn_drop): Dropout(p=0.0, inplace=False)
            (proj): Linear(in_features=1024, out_features=1024, bias=True)
            (proj_drop): Dropout(p=0.0, inplace=False)
            (softmax): Softmax(dim=-1)
          )
          (drop_path): DropPath()
          (norm2): TimerModule(
            (model): LayerNorm((1024,), eps=1e-05, elementwise_affine=True)
          )
          (mlp): MoEMlp(
            [Statistics-0] param count for MoE, in_features = 1024, hidden_features = 4096, num_local_experts = 1, top_value = 2, cosine_router=False normalize_gate=False, use_bpr = True
            (_dropout): Dropout(p=0.1, inplace=False)
            (_moe_layer): MOELayer(
              Top-K(s) = ['k=2, noise=1.0'], Total-Experts = 32 [managed by 32 device(s)],
              (experts): FusedExpertsNetwork(model_dim=1024, hidden_size=4096, output_dim=1024, local_experts=1)
              (gates): ModuleList(
                (0): LinearTopKGate(
                  (wg): Linear(in_features=1024, out_features=32, bias=False)
                )
              )
            )
          )
        )
      )
    )
  )
  (norm): TimerModule(
    (model): LayerNorm((1024,), eps=1e-05, elementwise_affine=True)
  )
  (avgpool): TimerModule(
    (model): AdaptiveAvgPool1d(output_size=1)
  )
  (head): TimerModule(
    (model): Linear(in_features=1024, out_features=21841, bias=True)
  )
)
[32m[2023-01-05 04:19:24 swin_tutelmoe_base_patch4_window12_192_32expert_32gpu_22k][0m[33m(main_tutel_moe.py 103)[0m: INFO [rank0] [layers.2.blocks.1.mlp._moe_layer.experts.batched_fc1_w] skip all_reduce and div 32 for grad
[32m[2023-01-05 04:19:24 swin_tutelmoe_base_patch4_window12_192_32expert_32gpu_22k][0m[33m(main_tutel_moe.py 103)[0m: INFO [rank0] [layers.2.blocks.1.mlp._moe_layer.experts.batched_fc2_w] skip all_reduce and div 32 for grad
…
