…
[INFO] 4 in EP group [0, 1, 2, 3, 4, 5, 6, 7, 8, 9, 10, 11, 12, 13, 14, 15, 16, 17, 18, 19, 20, 21, 22, 23, 24, 25, 26, 27, 28, 29, 30, 31]
[INFO] 4 in DP group [4]
[WARNING] world comm group not exist!
All master checkpoints founded in /home/zms/model_training/Auto-Megatron/logs/swin_gshard4.8/swin_fastmoe_base_patch4_window12_192_32expert_32gpu_22k/default: []
[INFO] 0 in EP group [0, 1, 2, 3, 4, 5, 6, 7, 8, 9, 10, 11, 12, 13, 14, 15, 16, 17, 18, 19, 20, 21, 22, 23, 24, 25, 26, 27, 28, 29, 30, 31]
[INFO] 0 in DP group [0]
[32m[2023-01-06 12:59:30 swin_fastmoe_base_patch4_window12_192_32expert_32gpu_22k][0m[33m(main_moe.py 122)[0m: INFO SwinTransformerFastMoE(
  (patch_embed): PatchEmbed(
    (proj): Conv2d(3, 128, kernel_size=(4, 4), stride=(4, 4))
    (norm): LayerNorm((128,), eps=1e-05, elementwise_affine=True)
  )
  (pos_drop): Dropout(p=0.0, inplace=False)
  (layers): ModuleList(
    (0): BasicLayer(
      dim=128, input_resolution=(48, 48), depth=2
      (blocks): ModuleList(
        (0): SwinTransformerBlock(
          dim=128, input_resolution=(48, 48), num_heads=4, window_size=12, shift_size=0, mlp_ratio=4.0
          (norm1): TimerModule(
            (model): LayerNorm((128,), eps=1e-05, elementwise_affine=True)
          )
          (attn): WindowAttention(
            dim=128, window_size=(12, 12), pretrained_window_size=(0, 0), num_heads=4
            (cpb_mlp): Sequential(
              (0): Linear(in_features=2, out_features=512, bias=True)
              (1): ReLU(inplace=True)
              (2): Linear(in_features=512, out_features=4, bias=False)
            )
            (qkv): Linear(in_features=128, out_features=384, bias=True)
            (attn_drop): Dropout(p=0.0, inplace=False)
            (proj): Linear(in_features=128, out_features=128, bias=True)
            (proj_drop): Dropout(p=0.0, inplace=False)
            (softmax): Softmax(dim=-1)
          )
          (drop_path): Identity()
          (norm2): TimerModule(
            (model): LayerNorm((128,), eps=1e-05, elementwise_affine=True)
          )
          (mlp): Mlp(
            (fc1): Linear(in_features=128, out_features=512, bias=True)
            (act): GELU(approximate=none)
            (fc2): Linear(in_features=512, out_features=128, bias=False)
            (drop): Dropout(p=0.0, inplace=False)
          )
        )
        (1): SwinTransformerBlock(
          dim=128, input_resolution=(48, 48), num_heads=4, window_size=12, shift_size=6, mlp_ratio=4.0
          (norm1): TimerModule(
            (model): LayerNorm((128,), eps=1e-05, elementwise_affine=True)
          )
          (attn): WindowAttention(
            dim=128, window_size=(12, 12), pretrained_window_size=(0, 0), num_heads=4
            (cpb_mlp): Sequential(
              (0): Linear(in_features=2, out_features=512, bias=True)
              (1): ReLU(inplace=True)
              (2): Linear(in_features=512, out_features=4, bias=False)
            )
            (qkv): Linear(in_features=128, out_features=384, bias=True)
            (attn_drop): Dropout(p=0.0, inplace=False)
            (proj): Linear(in_features=128, out_features=128, bias=True)
            (proj_drop): Dropout(p=0.0, inplace=False)
            (softmax): Softmax(dim=-1)
          )
          (drop_path): DropPath()
          (norm2): TimerModule(
            (model): LayerNorm((128,), eps=1e-05, elementwise_affine=True)
          )
          (mlp): Mlp(
            (fc1): Linear(in_features=128, out_features=512, bias=True)
            (act): GELU(approximate=none)
            (fc2): Linear(in_features=512, out_features=128, bias=False)
            (drop): Dropout(p=0.0, inplace=False)
          )
        )
      )
      (downsample): PatchMerging(
        input_resolution=(48, 48), dim=128
        (reduction): Linear(in_features=512, out_features=256, bias=False)
        (norm): LayerNorm((512,), eps=1e-05, elementwise_affine=True)
      )
    )
    (1): BasicLayer(
      dim=256, input_resolution=(24, 24), depth=2
      (blocks): ModuleList(
        (0): SwinTransformerBlock(
          dim=256, input_resolution=(24, 24), num_heads=8, window_size=12, shift_size=0, mlp_ratio=4.0
          (norm1): TimerModule(
            (model): LayerNorm((256,), eps=1e-05, elementwise_affine=True)
          )
          (attn): WindowAttention(
            dim=256, window_size=(12, 12), pretrained_window_size=(0, 0), num_heads=8
            (cpb_mlp): Sequential(
              (0): Linear(in_features=2, out_features=512, bias=True)
              (1): ReLU(inplace=True)
              (2): Linear(in_features=512, out_features=8, bias=False)
            )
            (qkv): Linear(in_features=256, out_features=768, bias=True)
            (attn_drop): Dropout(p=0.0, inplace=False)
            (proj): Linear(in_features=256, out_features=256, bias=True)
            (proj_drop): Dropout(p=0.0, inplace=False)
            (softmax): Softmax(dim=-1)
          )
          (drop_path): DropPath()
          (norm2): TimerModule(
            (model): LayerNorm((256,), eps=1e-05, elementwise_affine=True)
          )
          (mlp): Mlp(
            (fc1): Linear(in_features=256, out_features=1024, bias=True)
            (act): GELU(approximate=none)
            (fc2): Linear(in_features=1024, out_features=256, bias=False)
            (drop): Dropout(p=0.0, inplace=False)
          )
        )
        (1): SwinTransformerBlock(
          dim=256, input_resolution=(24, 24), num_heads=8, window_size=12, shift_size=6, mlp_ratio=4.0
          (norm1): TimerModule(
            (model): LayerNorm((256,), eps=1e-05, elementwise_affine=True)
          )
          (attn): WindowAttention(
            dim=256, window_size=(12, 12), pretrained_window_size=(0, 0), num_heads=8
            (cpb_mlp): Sequential(
              (0): Linear(in_features=2, out_features=512, bias=True)
              (1): ReLU(inplace=True)
              (2): Linear(in_features=512, out_features=8, bias=False)
            )
            (qkv): Linear(in_features=256, out_features=768, bias=True)
            (attn_drop): Dropout(p=0.0, inplace=False)
            (proj): Linear(in_features=256, out_features=256, bias=True)
            (proj_drop): Dropout(p=0.0, inplace=False)
            (softmax): Softmax(dim=-1)
          )
          (drop_path): DropPath()
          (norm2): TimerModule(
            (model): LayerNorm((256,), eps=1e-05, elementwise_affine=True)
          )
          (mlp): Mlp(
            (fc1): Linear(in_features=256, out_features=1024, bias=True)
            (act): GELU(approximate=none)
            (fc2): Linear(in_features=1024, out_features=256, bias=False)
            (drop): Dropout(p=0.0, inplace=False)
          )
        )
      )
      (downsample): PatchMerging(
        input_resolution=(24, 24), dim=256
        (reduction): Linear(in_features=1024, out_features=512, bias=False)
        (norm): LayerNorm((1024,), eps=1e-05, elementwise_affine=True)
      )
    )
    (2): BasicLayer(
      dim=512, input_resolution=(12, 12), depth=18
      (blocks): ModuleList(
        (0): SwinTransformerBlock(
          dim=512, input_resolution=(12, 12), num_heads=16, window_size=12, shift_size=0, mlp_ratio=4.0
          (norm1): TimerModule(
            (model): LayerNorm((512,), eps=1e-05, elementwise_affine=True)
          )
          (attn): WindowAttention(
            dim=512, window_size=(12, 12), pretrained_window_size=(0, 0), num_heads=16
            (cpb_mlp): Sequential(
              (0): Linear(in_features=2, out_features=512, bias=True)
              (1): ReLU(inplace=True)
              (2): Linear(in_features=512, out_features=16, bias=False)
            )
            (qkv): Linear(in_features=512, out_features=1536, bias=True)
            (attn_drop): Dropout(p=0.0, inplace=False)
            (proj): Linear(in_features=512, out_features=512, bias=True)
            (proj_drop): Dropout(p=0.0, inplace=False)
            (softmax): Softmax(dim=-1)
          )
          (drop_path): DropPath()
          (norm2): TimerModule(
            (model): LayerNorm((512,), eps=1e-05, elementwise_affine=True)
          )
          (mlp): Mlp(
            (fc1): Linear(in_features=512, out_features=2048, bias=True)
            (act): GELU(approximate=none)
            (fc2): Linear(in_features=2048, out_features=512, bias=False)
            (drop): Dropout(p=0.0, inplace=False)
          )
        )
        (1): SwinTransformerBlock(
          dim=512, input_resolution=(12, 12), num_heads=16, window_size=12, shift_size=0, mlp_ratio=4.0
          (norm1): TimerModule(
            (model): LayerNorm((512,), eps=1e-05, elementwise_affine=True)
          )
          (attn): WindowAttention(
            dim=512, window_size=(12, 12), pretrained_window_size=(0, 0), num_heads=16
            (cpb_mlp): Sequential(
              (0): Linear(in_features=2, out_features=512, bias=True)
              (1): ReLU(inplace=True)
              (2): Linear(in_features=512, out_features=16, bias=False)
            )
            (qkv): Linear(in_features=512, out_features=1536, bias=True)
            (attn_drop): Dropout(p=0.0, inplace=False)
            (proj): Linear(in_features=512, out_features=512, bias=True)
            (proj_drop): Dropout(p=0.0, inplace=False)
            (softmax): Softmax(dim=-1)
          )
          (drop_path): DropPath()
          (norm2): TimerModule(
            (model): LayerNorm((512,), eps=1e-05, elementwise_affine=True)
          )
          (mlp): MoEMlp(
            [Statistics-0] param count for MoE, in_features = 512, hidden_features = 2048, num_local_experts = 1, top_value = 2, cosine_router=False normalize_gate=False, use_bpr = True
            (_dropout): Dropout(p=0.1, inplace=False)
            (_moe_layer): MegatronMLP(
              (experts): ModuleList(
                (0): _Expert(
                  (htoh4): FMoELinear(num_expert=1, in_features=2048,         out_features=4096, bias=True, rank=0)
                  (h4toh): FMoELinear(num_expert=1, in_features=4096,         out_features=2048, bias=True, rank=0)
                  (activation): GELU(approximate=none)
                )
              )
              (gate): NaiveGate(
                (gate): Linear(in_features=2048, out_features=32, bias=True)
              )
            )
          )
        )
        (2): SwinTransformerBlock(
          dim=512, input_resolution=(12, 12), num_heads=16, window_size=12, shift_size=0, mlp_ratio=4.0
          (norm1): TimerModule(
            (model): LayerNorm((512,), eps=1e-05, elementwise_affine=True)
          )
          (attn): WindowAttention(
            dim=512, window_size=(12, 12), pretrained_window_size=(0, 0), num_heads=16
            (cpb_mlp): Sequential(
              (0): Linear(in_features=2, out_features=512, bias=True)
              (1): ReLU(inplace=True)
              (2): Linear(in_features=512, out_features=16, bias=False)
            )
            (qkv): Linear(in_features=512, out_features=1536, bias=True)
            (attn_drop): Dropout(p=0.0, inplace=False)
            (proj): Linear(in_features=512, out_features=512, bias=True)
            (proj_drop): Dropout(p=0.0, inplace=False)
            (softmax): Softmax(dim=-1)
          )
          (drop_path): DropPath()
          (norm2): TimerModule(
            (model): LayerNorm((512,), eps=1e-05, elementwise_affine=True)
          )
          (mlp): Mlp(
            (fc1): Linear(in_features=512, out_features=2048, bias=True)
            (act): GELU(approximate=none)
            (fc2): Linear(in_features=2048, out_features=512, bias=False)
            (drop): Dropout(p=0.0, inplace=False)
          )
        )
        (3): SwinTransformerBlock(
          dim=512, input_resolution=(12, 12), num_heads=16, window_size=12, shift_size=0, mlp_ratio=4.0
          (norm1): TimerModule(
            (model): LayerNorm((512,), eps=1e-05, elementwise_affine=True)
          )
          (attn): WindowAttention(
            dim=512, window_size=(12, 12), pretrained_window_size=(0, 0), num_heads=16
            (cpb_mlp): Sequential(
              (0): Linear(in_features=2, out_features=512, bias=True)
              (1): ReLU(inplace=True)
              (2): Linear(in_features=512, out_features=16, bias=False)
            )
            (qkv): Linear(in_features=512, out_features=1536, bias=True)
            (attn_drop): Dropout(p=0.0, inplace=False)
            (proj): Linear(in_features=512, out_features=512, bias=True)
            (proj_drop): Dropout(p=0.0, inplace=False)
            (softmax): Softmax(dim=-1)
          )
          (drop_path): DropPath()
          (norm2): TimerModule(
            (model): LayerNorm((512,), eps=1e-05, elementwise_affine=True)
          )
          (mlp): MoEMlp(
            [Statistics-0] param count for MoE, in_features = 512, hidden_features = 2048, num_local_experts = 1, top_value = 2, cosine_router=False normalize_gate=False, use_bpr = True
            (_dropout): Dropout(p=0.1, inplace=False)
            (_moe_layer): MegatronMLP(
              (experts): ModuleList(
                (0): _Expert(
                  (htoh4): FMoELinear(num_expert=1, in_features=2048,         out_features=4096, bias=True, rank=0)
                  (h4toh): FMoELinear(num_expert=1, in_features=4096,         out_features=2048, bias=True, rank=0)
                  (activation): GELU(approximate=none)
                )
              )
              (gate): NaiveGate(
                (gate): Linear(in_features=2048, out_features=32, bias=True)
              )
            )
          )
        )
        (4): SwinTransformerBlock(
          dim=512, input_resolution=(12, 12), num_heads=16, window_size=12, shift_size=0, mlp_ratio=4.0
          (norm1): TimerModule(
            (model): LayerNorm((512,), eps=1e-05, elementwise_affine=True)
          )
          (attn): WindowAttention(
            dim=512, window_size=(12, 12), pretrained_window_size=(0, 0), num_heads=16
            (cpb_mlp): Sequential(
              (0): Linear(in_features=2, out_features=512, bias=True)
              (1): ReLU(inplace=True)
              (2): Linear(in_features=512, out_features=16, bias=False)
            )
            (qkv): Linear(in_features=512, out_features=1536, bias=True)
            (attn_drop): Dropout(p=0.0, inplace=False)
            (proj): Linear(in_features=512, out_features=512, bias=True)
            (proj_drop): Dropout(p=0.0, inplace=False)
            (softmax): Softmax(dim=-1)
          )
          (drop_path): DropPath()
          (norm2): TimerModule(
            (model): LayerNorm((512,), eps=1e-05, elementwise_affine=True)
          )
          (mlp): Mlp(
            (fc1): Linear(in_features=512, out_features=2048, bias=True)
            (act): GELU(approximate=none)
            (fc2): Linear(in_features=2048, out_features=512, bias=False)
            (drop): Dropout(p=0.0, inplace=False)
          )
        )
        (5): SwinTransformerBlock(
          dim=512, input_resolution=(12, 12), num_heads=16, window_size=12, shift_size=0, mlp_ratio=4.0
          (norm1): TimerModule(
            (model): LayerNorm((512,), eps=1e-05, elementwise_affine=True)
          )
          (attn): WindowAttention(
            dim=512, window_size=(12, 12), pretrained_window_size=(0, 0), num_heads=16
            (cpb_mlp): Sequential(
              (0): Linear(in_features=2, out_features=512, bias=True)
              (1): ReLU(inplace=True)
              (2): Linear(in_features=512, out_features=16, bias=False)
            )
            (qkv): Linear(in_features=512, out_features=1536, bias=True)
            (attn_drop): Dropout(p=0.0, inplace=False)
            (proj): Linear(in_features=512, out_features=512, bias=True)
            (proj_drop): Dropout(p=0.0, inplace=False)
            (softmax): Softmax(dim=-1)
          )
          (drop_path): DropPath()
          (norm2): TimerModule(
            (model): LayerNorm((512,), eps=1e-05, elementwise_affine=True)
          )
          (mlp): MoEMlp(
            [Statistics-0] param count for MoE, in_features = 512, hidden_features = 2048, num_local_experts = 1, top_value = 2, cosine_router=False normalize_gate=False, use_bpr = True
            (_dropout): Dropout(p=0.1, inplace=False)
            (_moe_layer): MegatronMLP(
              (experts): ModuleList(
                (0): _Expert(
                  (htoh4): FMoELinear(num_expert=1, in_features=2048,         out_features=4096, bias=True, rank=0)
                  (h4toh): FMoELinear(num_expert=1, in_features=4096,         out_features=2048, bias=True, rank=0)
                  (activation): GELU(approximate=none)
                )
              )
              (gate): NaiveGate(
                (gate): Linear(in_features=2048, out_features=32, bias=True)
              )
            )
          )
        )
        (6): SwinTransformerBlock(
          dim=512, input_resolution=(12, 12), num_heads=16, window_size=12, shift_size=0, mlp_ratio=4.0
          (norm1): TimerModule(
            (model): LayerNorm((512,), eps=1e-05, elementwise_affine=True)
          )
          (attn): WindowAttention(
            dim=512, window_size=(12, 12), pretrained_window_size=(0, 0), num_heads=16
            (cpb_mlp): Sequential(
              (0): Linear(in_features=2, out_features=512, bias=True)
              (1): ReLU(inplace=True)
              (2): Linear(in_features=512, out_features=16, bias=False)
            )
            (qkv): Linear(in_features=512, out_features=1536, bias=True)
            (attn_drop): Dropout(p=0.0, inplace=False)
            (proj): Linear(in_features=512, out_features=512, bias=True)
            (proj_drop): Dropout(p=0.0, inplace=False)
            (softmax): Softmax(dim=-1)
          )
          (drop_path): DropPath()
          (norm2): TimerModule(
            (model): LayerNorm((512,), eps=1e-05, elementwise_affine=True)
          )
          (mlp): Mlp(
            (fc1): Linear(in_features=512, out_features=2048, bias=True)
            (act): GELU(approximate=none)
            (fc2): Linear(in_features=2048, out_features=512, bias=False)
            (drop): Dropout(p=0.0, inplace=False)
          )
        )
        (7): SwinTransformerBlock(
          dim=512, input_resolution=(12, 12), num_heads=16, window_size=12, shift_size=0, mlp_ratio=4.0
          (norm1): TimerModule(
            (model): LayerNorm((512,), eps=1e-05, elementwise_affine=True)
          )
          (attn): WindowAttention(
            dim=512, window_size=(12, 12), pretrained_window_size=(0, 0), num_heads=16
            (cpb_mlp): Sequential(
              (0): Linear(in_features=2, out_features=512, bias=True)
              (1): ReLU(inplace=True)
              (2): Linear(in_features=512, out_features=16, bias=False)
            )
            (qkv): Linear(in_features=512, out_features=1536, bias=True)
            (attn_drop): Dropout(p=0.0, inplace=False)
            (proj): Linear(in_features=512, out_features=512, bias=True)
            (proj_drop): Dropout(p=0.0, inplace=False)
            (softmax): Softmax(dim=-1)
          )
          (drop_path): DropPath()
          (norm2): TimerModule(
            (model): LayerNorm((512,), eps=1e-05, elementwise_affine=True)
          )
          (mlp): MoEMlp(
            [Statistics-0] param count for MoE, in_features = 512, hidden_features = 2048, num_local_experts = 1, top_value = 2, cosine_router=False normalize_gate=False, use_bpr = True
            (_dropout): Dropout(p=0.1, inplace=False)
            (_moe_layer): MegatronMLP(
              (experts): ModuleList(
                (0): _Expert(
                  (htoh4): FMoELinear(num_expert=1, in_features=2048,         out_features=4096, bias=True, rank=0)
                  (h4toh): FMoELinear(num_expert=1, in_features=4096,         out_features=2048, bias=True, rank=0)
                  (activation): GELU(approximate=none)
                )
              )
              (gate): NaiveGate(
                (gate): Linear(in_features=2048, out_features=32, bias=True)
              )
            )
          )
        )
        (8): SwinTransformerBlock(
          dim=512, input_resolution=(12, 12), num_heads=16, window_size=12, shift_size=0, mlp_ratio=4.0
          (norm1): TimerModule(
            (model): LayerNorm((512,), eps=1e-05, elementwise_affine=True)
          )
          (attn): WindowAttention(
            dim=512, window_size=(12, 12), pretrained_window_size=(0, 0), num_heads=16
            (cpb_mlp): Sequential(
              (0): Linear(in_features=2, out_features=512, bias=True)
              (1): ReLU(inplace=True)
              (2): Linear(in_features=512, out_features=16, bias=False)
            )
            (qkv): Linear(in_features=512, out_features=1536, bias=True)
            (attn_drop): Dropout(p=0.0, inplace=False)
            (proj): Linear(in_features=512, out_features=512, bias=True)
            (proj_drop): Dropout(p=0.0, inplace=False)
            (softmax): Softmax(dim=-1)
          )
          (drop_path): DropPath()
          (norm2): TimerModule(
            (model): LayerNorm((512,), eps=1e-05, elementwise_affine=True)
          )
          (mlp): Mlp(
            (fc1): Linear(in_features=512, out_features=2048, bias=True)
            (act): GELU(approximate=none)
            (fc2): Linear(in_features=2048, out_features=512, bias=False)
            (drop): Dropout(p=0.0, inplace=False)
          )
        )
        (9): SwinTransformerBlock(
          dim=512, input_resolution=(12, 12), num_heads=16, window_size=12, shift_size=0, mlp_ratio=4.0
          (norm1): TimerModule(
            (model): LayerNorm((512,), eps=1e-05, elementwise_affine=True)
          )
          (attn): WindowAttention(
            dim=512, window_size=(12, 12), pretrained_window_size=(0, 0), num_heads=16
            (cpb_mlp): Sequential(
              (0): Linear(in_features=2, out_features=512, bias=True)
              (1): ReLU(inplace=True)
              (2): Linear(in_features=512, out_features=16, bias=False)
            )
            (qkv): Linear(in_features=512, out_features=1536, bias=True)
            (attn_drop): Dropout(p=0.0, inplace=False)
            (proj): Linear(in_features=512, out_features=512, bias=True)
            (proj_drop): Dropout(p=0.0, inplace=False)
            (softmax): Softmax(dim=-1)
          )
          (drop_path): DropPath()
          (norm2): TimerModule(
            (model): LayerNorm((512,), eps=1e-05, elementwise_affine=True)
          )
          (mlp): MoEMlp(
            [Statistics-0] param count for MoE, in_features = 512, hidden_features = 2048, num_local_experts = 1, top_value = 2, cosine_router=False normalize_gate=False, use_bpr = True
            (_dropout): Dropout(p=0.1, inplace=False)
            (_moe_layer): MegatronMLP(
              (experts): ModuleList(
                (0): _Expert(
                  (htoh4): FMoELinear(num_expert=1, in_features=2048,         out_features=4096, bias=True, rank=0)
                  (h4toh): FMoELinear(num_expert=1, in_features=4096,         out_features=2048, bias=True, rank=0)
                  (activation): GELU(approximate=none)
                )
              )
              (gate): NaiveGate(
                (gate): Linear(in_features=2048, out_features=32, bias=True)
              )
            )
          )
        )
        (10): SwinTransformerBlock(
          dim=512, input_resolution=(12, 12), num_heads=16, window_size=12, shift_size=0, mlp_ratio=4.0
          (norm1): TimerModule(
            (model): LayerNorm((512,), eps=1e-05, elementwise_affine=True)
          )
          (attn): WindowAttention(
            dim=512, window_size=(12, 12), pretrained_window_size=(0, 0), num_heads=16
            (cpb_mlp): Sequential(
              (0): Linear(in_features=2, out_features=512, bias=True)
              (1): ReLU(inplace=True)
              (2): Linear(in_features=512, out_features=16, bias=False)
            )
            (qkv): Linear(in_features=512, out_features=1536, bias=True)
            (attn_drop): Dropout(p=0.0, inplace=False)
            (proj): Linear(in_features=512, out_features=512, bias=True)
            (proj_drop): Dropout(p=0.0, inplace=False)
            (softmax): Softmax(dim=-1)
          )
          (drop_path): DropPath()
          (norm2): TimerModule(
            (model): LayerNorm((512,), eps=1e-05, elementwise_affine=True)
          )
          (mlp): Mlp(
            (fc1): Linear(in_features=512, out_features=2048, bias=True)
            (act): GELU(approximate=none)
            (fc2): Linear(in_features=2048, out_features=512, bias=False)
            (drop): Dropout(p=0.0, inplace=False)
          )
        )
        (11): SwinTransformerBlock(
          dim=512, input_resolution=(12, 12), num_heads=16, window_size=12, shift_size=0, mlp_ratio=4.0
          (norm1): TimerModule(
            (model): LayerNorm((512,), eps=1e-05, elementwise_affine=True)
          )
          (attn): WindowAttention(
            dim=512, window_size=(12, 12), pretrained_window_size=(0, 0), num_heads=16
            (cpb_mlp): Sequential(
              (0): Linear(in_features=2, out_features=512, bias=True)
              (1): ReLU(inplace=True)
              (2): Linear(in_features=512, out_features=16, bias=False)
            )
            (qkv): Linear(in_features=512, out_features=1536, bias=True)
            (attn_drop): Dropout(p=0.0, inplace=False)
            (proj): Linear(in_features=512, out_features=512, bias=True)
            (proj_drop): Dropout(p=0.0, inplace=False)
            (softmax): Softmax(dim=-1)
          )
          (drop_path): DropPath()
          (norm2): TimerModule(
            (model): LayerNorm((512,), eps=1e-05, elementwise_affine=True)
          )
          (mlp): MoEMlp(
            [Statistics-0] param count for MoE, in_features = 512, hidden_features = 2048, num_local_experts = 1, top_value = 2, cosine_router=False normalize_gate=False, use_bpr = True
            (_dropout): Dropout(p=0.1, inplace=False)
            (_moe_layer): MegatronMLP(
              (experts): ModuleList(
                (0): _Expert(
                  (htoh4): FMoELinear(num_expert=1, in_features=2048,         out_features=4096, bias=True, rank=0)
                  (h4toh): FMoELinear(num_expert=1, in_features=4096,         out_features=2048, bias=True, rank=0)
                  (activation): GELU(approximate=none)
                )
              )
              (gate): NaiveGate(
                (gate): Linear(in_features=2048, out_features=32, bias=True)
              )
            )
          )
        )
        (12): SwinTransformerBlock(
          dim=512, input_resolution=(12, 12), num_heads=16, window_size=12, shift_size=0, mlp_ratio=4.0
          (norm1): TimerModule(
            (model): LayerNorm((512,), eps=1e-05, elementwise_affine=True)
          )
          (attn): WindowAttention(
            dim=512, window_size=(12, 12), pretrained_window_size=(0, 0), num_heads=16
            (cpb_mlp): Sequential(
              (0): Linear(in_features=2, out_features=512, bias=True)
              (1): ReLU(inplace=True)
              (2): Linear(in_features=512, out_features=16, bias=False)
            )
            (qkv): Linear(in_features=512, out_features=1536, bias=True)
            (attn_drop): Dropout(p=0.0, inplace=False)
            (proj): Linear(in_features=512, out_features=512, bias=True)
            (proj_drop): Dropout(p=0.0, inplace=False)
            (softmax): Softmax(dim=-1)
          )
          (drop_path): DropPath()
          (norm2): TimerModule(
            (model): LayerNorm((512,), eps=1e-05, elementwise_affine=True)
          )
          (mlp): Mlp(
            (fc1): Linear(in_features=512, out_features=2048, bias=True)
            (act): GELU(approximate=none)
            (fc2): Linear(in_features=2048, out_features=512, bias=False)
            (drop): Dropout(p=0.0, inplace=False)
          )
        )
        (13): SwinTransformerBlock(
          dim=512, input_resolution=(12, 12), num_heads=16, window_size=12, shift_size=0, mlp_ratio=4.0
          (norm1): TimerModule(
            (model): LayerNorm((512,), eps=1e-05, elementwise_affine=True)
          )
          (attn): WindowAttention(
            dim=512, window_size=(12, 12), pretrained_window_size=(0, 0), num_heads=16
            (cpb_mlp): Sequential(
              (0): Linear(in_features=2, out_features=512, bias=True)
              (1): ReLU(inplace=True)
              (2): Linear(in_features=512, out_features=16, bias=False)
            )
            (qkv): Linear(in_features=512, out_features=1536, bias=True)
            (attn_drop): Dropout(p=0.0, inplace=False)
            (proj): Linear(in_features=512, out_features=512, bias=True)
            (proj_drop): Dropout(p=0.0, inplace=False)
            (softmax): Softmax(dim=-1)
          )
          (drop_path): DropPath()
          (norm2): TimerModule(
            (model): LayerNorm((512,), eps=1e-05, elementwise_affine=True)
          )
          (mlp): MoEMlp(
            [Statistics-0] param count for MoE, in_features = 512, hidden_features = 2048, num_local_experts = 1, top_value = 2, cosine_router=False normalize_gate=False, use_bpr = True
            (_dropout): Dropout(p=0.1, inplace=False)
            (_moe_layer): MegatronMLP(
              (experts): ModuleList(
                (0): _Expert(
                  (htoh4): FMoELinear(num_expert=1, in_features=2048,         out_features=4096, bias=True, rank=0)
                  (h4toh): FMoELinear(num_expert=1, in_features=4096,         out_features=2048, bias=True, rank=0)
                  (activation): GELU(approximate=none)
                )
              )
              (gate): NaiveGate(
                (gate): Linear(in_features=2048, out_features=32, bias=True)
              )
            )
          )
        )
        (14): SwinTransformerBlock(
          dim=512, input_resolution=(12, 12), num_heads=16, window_size=12, shift_size=0, mlp_ratio=4.0
          (norm1): TimerModule(
            (model): LayerNorm((512,), eps=1e-05, elementwise_affine=True)
          )
          (attn): WindowAttention(
            dim=512, window_size=(12, 12), pretrained_window_size=(0, 0), num_heads=16
            (cpb_mlp): Sequential(
              (0): Linear(in_features=2, out_features=512, bias=True)
              (1): ReLU(inplace=True)
              (2): Linear(in_features=512, out_features=16, bias=False)
            )
            (qkv): Linear(in_features=512, out_features=1536, bias=True)
            (attn_drop): Dropout(p=0.0, inplace=False)
            (proj): Linear(in_features=512, out_features=512, bias=True)
            (proj_drop): Dropout(p=0.0, inplace=False)
            (softmax): Softmax(dim=-1)
          )
          (drop_path): DropPath()
          (norm2): TimerModule(
            (model): LayerNorm((512,), eps=1e-05, elementwise_affine=True)
          )
          (mlp): Mlp(
            (fc1): Linear(in_features=512, out_features=2048, bias=True)
            (act): GELU(approximate=none)
            (fc2): Linear(in_features=2048, out_features=512, bias=False)
            (drop): Dropout(p=0.0, inplace=False)
          )
        )
        (15): SwinTransformerBlock(
          dim=512, input_resolution=(12, 12), num_heads=16, window_size=12, shift_size=0, mlp_ratio=4.0
          (norm1): TimerModule(
            (model): LayerNorm((512,), eps=1e-05, elementwise_affine=True)
          )
          (attn): WindowAttention(
            dim=512, window_size=(12, 12), pretrained_window_size=(0, 0), num_heads=16
            (cpb_mlp): Sequential(
              (0): Linear(in_features=2, out_features=512, bias=True)
              (1): ReLU(inplace=True)
              (2): Linear(in_features=512, out_features=16, bias=False)
            )
            (qkv): Linear(in_features=512, out_features=1536, bias=True)
            (attn_drop): Dropout(p=0.0, inplace=False)
            (proj): Linear(in_features=512, out_features=512, bias=True)
            (proj_drop): Dropout(p=0.0, inplace=False)
            (softmax): Softmax(dim=-1)
          )
          (drop_path): DropPath()
          (norm2): TimerModule(
            (model): LayerNorm((512,), eps=1e-05, elementwise_affine=True)
          )
          (mlp): MoEMlp(
            [Statistics-0] param count for MoE, in_features = 512, hidden_features = 2048, num_local_experts = 1, top_value = 2, cosine_router=False normalize_gate=False, use_bpr = True
            (_dropout): Dropout(p=0.1, inplace=False)
            (_moe_layer): MegatronMLP(
              (experts): ModuleList(
                (0): _Expert(
                  (htoh4): FMoELinear(num_expert=1, in_features=2048,         out_features=4096, bias=True, rank=0)
                  (h4toh): FMoELinear(num_expert=1, in_features=4096,         out_features=2048, bias=True, rank=0)
                  (activation): GELU(approximate=none)
                )
              )
              (gate): NaiveGate(
                (gate): Linear(in_features=2048, out_features=32, bias=True)
              )
            )
          )
        )
        (16): SwinTransformerBlock(
          dim=512, input_resolution=(12, 12), num_heads=16, window_size=12, shift_size=0, mlp_ratio=4.0
          (norm1): TimerModule(
            (model): LayerNorm((512,), eps=1e-05, elementwise_affine=True)
          )
          (attn): WindowAttention(
            dim=512, window_size=(12, 12), pretrained_window_size=(0, 0), num_heads=16
            (cpb_mlp): Sequential(
              (0): Linear(in_features=2, out_features=512, bias=True)
              (1): ReLU(inplace=True)
              (2): Linear(in_features=512, out_features=16, bias=False)
            )
            (qkv): Linear(in_features=512, out_features=1536, bias=True)
            (attn_drop): Dropout(p=0.0, inplace=False)
            (proj): Linear(in_features=512, out_features=512, bias=True)
            (proj_drop): Dropout(p=0.0, inplace=False)
            (softmax): Softmax(dim=-1)
          )
          (drop_path): DropPath()
          (norm2): TimerModule(
            (model): LayerNorm((512,), eps=1e-05, elementwise_affine=True)
          )
          (mlp): Mlp(
            (fc1): Linear(in_features=512, out_features=2048, bias=True)
            (act): GELU(approximate=none)
            (fc2): Linear(in_features=2048, out_features=512, bias=False)
            (drop): Dropout(p=0.0, inplace=False)
          )
        )
        (17): SwinTransformerBlock(
          dim=512, input_resolution=(12, 12), num_heads=16, window_size=12, shift_size=0, mlp_ratio=4.0
          (norm1): TimerModule(
            (model): LayerNorm((512,), eps=1e-05, elementwise_affine=True)
          )
          (attn): WindowAttention(
            dim=512, window_size=(12, 12), pretrained_window_size=(0, 0), num_heads=16
            (cpb_mlp): Sequential(
              (0): Linear(in_features=2, out_features=512, bias=True)
              (1): ReLU(inplace=True)
              (2): Linear(in_features=512, out_features=16, bias=False)
            )
            (qkv): Linear(in_features=512, out_features=1536, bias=True)
            (attn_drop): Dropout(p=0.0, inplace=False)
            (proj): Linear(in_features=512, out_features=512, bias=True)
            (proj_drop): Dropout(p=0.0, inplace=False)
            (softmax): Softmax(dim=-1)
          )
          (drop_path): DropPath()
          (norm2): TimerModule(
            (model): LayerNorm((512,), eps=1e-05, elementwise_affine=True)
          )
          (mlp): MoEMlp(
            [Statistics-0] param count for MoE, in_features = 512, hidden_features = 2048, num_local_experts = 1, top_value = 2, cosine_router=False normalize_gate=False, use_bpr = True
            (_dropout): Dropout(p=0.1, inplace=False)
            (_moe_layer): MegatronMLP(
              (experts): ModuleList(
                (0): _Expert(
                  (htoh4): FMoELinear(num_expert=1, in_features=2048,         out_features=4096, bias=True, rank=0)
                  (h4toh): FMoELinear(num_expert=1, in_features=4096,         out_features=2048, bias=True, rank=0)
                  (activation): GELU(approximate=none)
                )
              )
              (gate): NaiveGate(
                (gate): Linear(in_features=2048, out_features=32, bias=True)
              )
            )
          )
        )
      )
      (downsample): PatchMerging(
        input_resolution=(12, 12), dim=512
        (reduction): Linear(in_features=2048, out_features=1024, bias=False)
        (norm): LayerNorm((2048,), eps=1e-05, elementwise_affine=True)
      )
    )
    (3): BasicLayer(
      dim=1024, input_resolution=(6, 6), depth=2
      (blocks): ModuleList(
        (0): SwinTransformerBlock(
          dim=1024, input_resolution=(6, 6), num_heads=32, window_size=6, shift_size=0, mlp_ratio=4.0
          (norm1): TimerModule(
            (model): LayerNorm((1024,), eps=1e-05, elementwise_affine=True)
          )
          (attn): WindowAttention(
            dim=1024, window_size=(6, 6), pretrained_window_size=(0, 0), num_heads=32
            (cpb_mlp): Sequential(
              (0): Linear(in_features=2, out_features=512, bias=True)
              (1): ReLU(inplace=True)
              (2): Linear(in_features=512, out_features=32, bias=False)
            )
            (qkv): Linear(in_features=1024, out_features=3072, bias=True)
            (attn_drop): Dropout(p=0.0, inplace=False)
            (proj): Linear(in_features=1024, out_features=1024, bias=True)
            (proj_drop): Dropout(p=0.0, inplace=False)
            (softmax): Softmax(dim=-1)
          )
          (drop_path): DropPath()
          (norm2): TimerModule(
            (model): LayerNorm((1024,), eps=1e-05, elementwise_affine=True)
          )
          (mlp): Mlp(
            (fc1): Linear(in_features=1024, out_features=4096, bias=True)
            (act): GELU(approximate=none)
            (fc2): Linear(in_features=4096, out_features=1024, bias=False)
            (drop): Dropout(p=0.0, inplace=False)
          )
        )
        (1): SwinTransformerBlock(
          dim=1024, input_resolution=(6, 6), num_heads=32, window_size=6, shift_size=0, mlp_ratio=4.0
          (norm1): TimerModule(
            (model): LayerNorm((1024,), eps=1e-05, elementwise_affine=True)
          )
          (attn): WindowAttention(
            dim=1024, window_size=(6, 6), pretrained_window_size=(0, 0), num_heads=32
            (cpb_mlp): Sequential(
              (0): Linear(in_features=2, out_features=512, bias=True)
              (1): ReLU(inplace=True)
              (2): Linear(in_features=512, out_features=32, bias=False)
            )
            (qkv): Linear(in_features=1024, out_features=3072, bias=True)
            (attn_drop): Dropout(p=0.0, inplace=False)
            (proj): Linear(in_features=1024, out_features=1024, bias=True)
            (proj_drop): Dropout(p=0.0, inplace=False)
            (softmax): Softmax(dim=-1)
          )
          (drop_path): DropPath()
          (norm2): TimerModule(
            (model): LayerNorm((1024,), eps=1e-05, elementwise_affine=True)
          )
          (mlp): MoEMlp(
            [Statistics-0] param count for MoE, in_features = 1024, hidden_features = 4096, num_local_experts = 1, top_value = 2, cosine_router=False normalize_gate=False, use_bpr = True
            (_dropout): Dropout(p=0.1, inplace=False)
            (_moe_layer): MegatronMLP(
              (experts): ModuleList(
                (0): _Expert(
                  (htoh4): FMoELinear(num_expert=1, in_features=4096,         out_features=8192, bias=True, rank=0)
                  (h4toh): FMoELinear(num_expert=1, in_features=8192,         out_features=4096, bias=True, rank=0)
                  (activation): GELU(approximate=none)
                )
              )
              (gate): NaiveGate(
                (gate): Linear(in_features=4096, out_features=32, bias=True)
              )
            )
          )
        )
      )
    )
  )
  (norm): TimerModule(
    (model): LayerNorm((1024,), eps=1e-05, elementwise_affine=True)
  )
  (avgpool): TimerModule(
    (model): AdaptiveAvgPool1d(output_size=1)
  )
  (head): TimerModule(
    (model): Linear(in_features=1024, out_features=21841, bias=True)
  )
)
=> merge config from configs/swinmoe/swin_moe_base_patch4_window12_192_32expert_32gpu_22k.yaml
RANK and WORLD_SIZE in environ: 31/32
local rank 0 / global rank 31 successfully build train dataset
local rank 0 / global rank 31 successfully build val dataset
[INFO] 31 in EP group [0, 1, 2, 3, 4, 5, 6, 7, 8, 9, 10, 11, 12, 13, 14, 15, 16, 17, 18, 19, 20, 21, 22, 23, 24, 25, 26, 27, 28, 29, 30, 31]
…
